data.pth (torch, 7147 bytes, 6 tensors)

l1.weight f4 [8, 95]
000000 c4 94 2b be fd 57 3e 3f c3 a3 e9 be 6f 1f 6d be
       -0.16755968 0.7435301 -0.45632753 -0.23156522
000010 7d 54 fa bc 9a 2d 3d 3e 05 73 05 3c 02 96 2b 3f
       -0.030557865 0.18474427 0.008145099 0.6702577
000020 02 3e d9 3e c2 17 01 3f 05 6e 9c 3e 4b 71 88 bd
       0.4243012 0.50426877 0.30552688 -0.06662234
000030 30 d6 16 be 83 77 d2 be ca 24 1d 3f 96 37 0f be
       -0.14730144 -0.41106805 0.6138426 -0.13986048
000040 ab 62 42 bf c6 0f 20 be 2f d4 18 3d 4a 10 9d bd
       -0.75931805 -0.15631017 0.03731173 -0.076691225
000050 e8 f6 d2 3e 48 fc 0e 3f b7 16 03 3f 9c 00 0c bf
       0.41204 0.558537 0.51206535 -0.5468843
000060 18 ad fa 3e 49 ce 86 be 93 9b 39 be 94 96 bb be
       0.48960185 -0.26329258 -0.18125753 -0.3663832
000070 dc 2e 08 3f d3 79 28 bf 99 e6 77 be 27 97 67 bd
       0.531965 -0.6581089 -0.2420906 -0.056540634
000080 47 67 9b be dd b3 bd be c9 fb 4d 3f 29 36 c9 3e
       -0.30352232 -0.37051287 0.8046232 0.39299133
000090 19 1d 56 bd 99 b9 24 3f f4 2c 33 3f 60 02 0f 3f
       -0.052273843 0.643457 0.6999047 0.55863
0000a0 38 89 bd 3e 87 fe cf bd ae b7 04 3f 65 b7 ff be
       0.37018752 -0.10155969 0.5184277 -0.49944606
0000b0 3a 33 f0 be 2e d7 b4 3e 03 b8 d4 3e c7 25 4a be
       -0.46914083 0.3532042 0.4154664 -0.19740973
0000c0 b2 95 cf 3e 4c df b3 be ab ca 65 be b3 02 08 be
       0.40543896 -0.351313 -0.22440593 -0.1328228
0000d0 5e e2 a8 3e a7 d7 9c bd e0 10 10 3e b2 71 20 bd
       0.32985204 -0.0765832 0.14068937 -0.03917093
0000e0 5f 57 8f be c4 a7 7a bd 13 e8 6a 3e 58 44 83 3e
       -0.27996346 -0.06119515 0.22940092 0.2563808
0000f0 3e 1c de be 8b aa 15 3f 18 0e 0a 3c 67 1f d2 bd
       -0.43380922 0.5846335 0.008426212 -0.10259896
000100 ed 27 71 3f 8d fc e5 3e 67 5c 19 3f 28 af 3a 3f
       0.94201547 0.44919243 0.5990662 0.7292352
000110 11 97 a9 be aa 8d 26 3e 31 af de 3e 8c ac 1a 3f
       -0.33123067 0.16264978 0.43493035 0.60419536
000120 db 54 63 be 06 63 ff bd d1 57 5b be d9 03 92 3e
       -0.22200339 -0.12470059 -0.21420218 0.2851856
000130 d8 79 d8 be 32 a3 2e be fb 1f 3b 3f c7 9a ef 3e
       -0.4228046 -0.17054442 0.73095673 0.46797773
000140 63 ab 3d bc f9 c8 b2 3e df 2e 80 3e 98 3b a2 bd
       -0.011576506 0.34918955 0.2503576 -0.07921523
000150 60 54 1f bf 3d 82 be bd 63 76 c7 bd 0a 1b 31 bf
       -0.6223812 -0.09302185 -0.09739377 -0.69181883
000160 14 f0 26 3f 5a 01 3f be 33 ca d5 3e 60 21 f6 be
       0.6521008 -0.1865286 0.41755828 -0.48072338
000170 95 d4 5d 3f 6e 27 46 be a9 13 c2 3e 54 88 a8 bd
       0.866525 -0.19350979 0.37905625 -0.082291275
000180 7e eb fc 3d 89 26 b0 3c 6e 05 e6 bd 79 d1 ed be
       0.12349604 0.02150275 -0.112315044 -0.46448877
000190 5f 47 ce 3d 3e 2c 8e be 14 be 99 3e 3a 01 42 be
       0.10072207 -0.2776813 0.3002783 -0.1894578
0001a0 8a b8 91 be 69 b8 1e 3d ea 2a 58 be d5 3a 85 3b
       -0.28461105 0.038750086 -0.2111012 0.004065851
0001b0 5a 87 15 3e 50 80 10 3e 55 ba 8a bd 88 e7 aa be
       0.14602414 0.14111447 -0.06773821 -0.3337977
0001c0 94 b2 18 bd e6 f7 1a be 5e 08 93 be 05 2f 4a be
       -0.03727968 -0.15133628 -0.2871732 -0.19744499
0001d0 9a b3 2d 3e 13 74 01 3f bd 44 db 3e 64 89 98 3e
       0.16963044 0.5056774 0.4282588 0.2979232
0001e0 f8 01 0a be b1 e7 11 bc 7a 73 bd bd c7 6e bd bd
       -0.13477314 -0.008905337 -0.09250541 -0.09249645
0001f0 99 8d bc be ec b5 20 be ad 5e f7 3e d1 df 1b be
       -0.3682678 -0.15694398 0.4831442 -0.15222098
000200 ec c6 b6 3e 3c cc 98 be af ac af be 63 de 04 3f
       0.3569864 -0.29843318 -0.34311435 0.51901835
000210 d4 26 95 be b0 6d c2 be 7d 24 81 be 7d 2b 86 be
       -0.29131186 -0.3797431 -0.2522315 -0.26205054
000220 d4 89 85 3d cf 64 b4 3e 40 94 0a bf ca 61 b3 3e
       0.06520429 0.3523316 -0.5413246 0.35035545
000230 b2 3d 7d bc 63 64 87 be 20 fb 93 bc 62 15 56 3e
       -0.015456604 -0.26443776 -0.018064082 0.20906594
000240 cd dd 26 be 8d cc e8 bc b2 36 a4 bb 08 b7 a7 3d
       -0.16295548 -0.02841785 -0.005011403 0.08189207
000250 d4 3f 30 3e 84 b9 75 3e 79 c7 45 3e 5c 2c 8f 3e
       0.17211848 0.2399655 0.19314374 0.2796353
000260 d4 40 a6 bd ca 95 3a 3e dc 62 cd 3d 14 78 0d bf
       -0.08117834 0.18221202 0.100286216 -0.5526135
000270 bb 3f 24 3f 76 eb 57 be fb 34 c6 bd 6e 94 53 3f
       0.64159745 -0.21085915 -0.09678074 0.8264836
000280 6b 8e 0f be 98 ef c3 3e 4d f0 91 be 0e 4c 2c be
       -0.14019172 0.38268733 -0.28503647 -0.16825888
000290 16 68 57 3e 1d a5 d6 3e 75 84 d2 3e 2d af e9 bc
       0.210358 0.41922846 0.41116682 -0.028525913
0002a0 56 0a 8c 3e f9 f5 78 bd a0 ad d1 3d 4c 55 c5 be
       0.27351636 -0.060781453 0.102381945 -0.3854164
0002b0 0d c7 20 be 17 ba e8 be 13 ae 70 be 59 31 9b be
       -0.15700932 -0.45454475 -0.23503904 -0.30311087
0002c0 26 84 bb bd 31 3a 8a 3e 9c 92 6d bb eb 16 aa 3e
       -0.09156065 0.26997522 -0.0036250716 0.3322061
0002d0 06 8c 24 bd 60 61 02 be 3b 7a f2 3e fc 5e c0 3e
       -0.0401726 -0.12732458 0.4735888 0.37572467
0002e0 09 a6 ec b9 2a 4a 4f 3e 54 a1 08 bf 35 0a 77 3f
       -0.00045137134 0.20243135 -0.5337117 0.9649995
0002f0 37 d3 ae bd 99 24 34 3c d3 5e 9f 3e b7 f8 e2 3e
       -0.0853638 0.010995054 0.31127033 0.4433038
000300 11 8e f7 3e 8b 28 8e 3c d3 39 f0 3e 40 3b 23 be
       0.48350576 0.017353317 0.46919116 -0.15940571
000310 eb 28 8a 3e 99 7a 31 3f c5 4e 38 3d b8 dd 15 3c
       0.26984343 0.69327694 0.044996995 0.0091471
000320 03 b2 9b 3e ef 0a 6c 3e 30 ea 9c 3e 8a 19 16 3f
       0.3040925 0.23051046 0.3064742 0.5863272
000330 68 a2 77 3f 9f 28 de 3e 7c 01 bb be ea d6 c2 3e
       0.9673219 0.43390366 -0.3652457 0.3805459
000340 3f f2 77 3e 86 e4 c4 3e 24 0f e2 3d 07 44 f4 3e
       0.24213503 0.384556 0.11038044 0.4770815
000350 3e 4e bb be 46 90 90 3e 63 52 00 3f f4 ed e3 3e
       -0.36583132 0.28235072 0.5012571 0.4451748
000360 52 6f 54 bd 0f 12 12 be 4f 8b 1e 3e 5a 55 a7 be
       -0.051863976 -0.14264701 0.1548283 -0.32682306
000370 fc 46 76 3c fd 89 83 3d 9b e6 a1 bc bf 03 a8 3e
       0.015031572 0.064228036 -0.019763282 0.32815358
000380 da 6a 69 3d 94 ac a8 3e 6d f6 8f 3e 54 15 0d 3e
       0.056986667 0.32944167 0.28117695 0.13777667
000390 19 2e 2c 3e 5d 9e 83 bd 4c a0 03 3e 23 2d 11 3f
       0.1681446 -0.0642669 0.12854117 0.567095
0003a0 63 df 6d 3f 5d 27 00 3f fb 57 5a 3e d4 32 af 3d
       0.92918986 0.50060064 0.21322624 0.085546166
0003b0 27 8d 31 be 11 63 05 be c4 29 af 3e d8 dc 41 bd
       -0.17339002 -0.13026072 0.34211552 -0.047329754
0003c0 92 83 a3 3e 02 35 04 be 84 de 7f 3e d3 38 72 3e
       0.31936318 -0.12910846 0.24987227 0.23654489
0003d0 6d 79 04 3f 38 63 c8 3e 8f b0 91 3e d4 02 b8 3e
       0.5174778 0.39138198 0.28455016 0.35939658
0003e0 4a 65 33 3f 06 9f 30 3f 8b 67 f4 3e 7b 89 04 be
       0.7007643 0.6899265 0.47735247 -0.1294307
0003f0 b0 f2 64 3e ca ea 83 3e 9d c5 21 bf cb 71 d6 bd
       0.22358203 0.25765067 -0.6319216 -0.10470923

l1.bias f4 [8]
000000 40 58 87 3f bb b7 e8 3e db 72 27 3f 20 44 fe 3e
       1.0573807 0.45452675 0.6540963 0.4966135
000010 d8 1c 32 3f 06 0b 27 3f aa 0b 38 3f d7 a3 ec 3e
       0.6957526 0.65251195 0.718928 0.4621875

l2.weight f4 [8, 8]
000000 d6 17 98 bf 56 43 25 bd 81 0f 04 3f a1 b3 6c 3f
       -1.1882274 -0.04034742 0.5158616 0.9246159
000010 c3 5d 62 3f 7f 29 a8 3f d0 b0 d1 3e ef bd 18 3f
       0.8842432 1.3137664 0.4095521 0.59664816
000020 cf 64 76 be 10 d8 a0 be f3 cd c4 3f ce 66 ac 3f
       -0.24061893 -0.31414843 1.5375351 1.3468874
000030 4f 1f 22 3f df 9a f9 be 9b b5 9b be 0a 05 89 3f
       0.63329023 -0.4875097 -0.3041199 1.0704663
000040 ba cd 86 bf 10 ac 4d bf 8b db 22 3f e3 ef 8a be
       -1.0531533 -0.8034067 0.63616246 -0.27136144
000050 e7 76 1b 3e 86 b0 80 3f a7 bd 2e 3f ce e3 11 3f
       0.15182076 1.0053871 0.68258137 0.5698823
000060 96 c1 a6 3f 47 80 8e 3f 59 e2 06 be b9 06 96 3f
       1.3027828 1.1132897 -0.13172282 1.1720802
000070 4f a1 37 3f f3 2b a6 3e 73 d8 c0 bf 21 e9 9c 3e
       0.7173051 0.32455406 -1.5066055 0.30646613
000080 2c 1d 3f 3f ac 25 95 bf ce f0 bc 3e 55 42 23 3f
       0.7465389 -1.1652122 0.3690247 0.6377309
000090 58 87 90 bf 9f 21 9b 3f 47 5a 9e 3f f5 64 55 3f
       -1.1291304 1.2119635 1.23713 0.83357173
0000a0 c6 76 a8 3f 8c d6 66 3f 06 c4 9a 3f 13 09 a6 bf
       1.3161247 0.9017112 1.2091072 -1.2971519
0000b0 f0 34 ac 3f ac 15 80 bf 19 db cc 3f d5 e0 8f bf
       1.3453655 -1.0006614 1.6004363 -1.1240488
0000c0 9c 47 66 3f d6 54 5f be 8c 29 26 3f 48 c8 83 3f
       0.8995302 -0.21809706 0.64907146 1.0295496
0000d0 62 53 00 bf 3e 1b 35 be e7 3b 54 be ab f5 43 3f
       -0.5012723 -0.17686173 -0.20725976 0.76546735
0000e0 0a 6a aa be 03 94 9a bd aa 0f 7c 3e aa 70 e0 bd
       -0.33284026 -0.07547762 0.2461535 -0.10958989
0000f0 cf b2 6b be 47 eb 2b be d9 35 a1 be f8 ca 5b 3d
       -0.23017429 -0.1678897 -0.31486395 0.053660363

l2.bias f4 [8]
000000 19 1c ad 3e ad ae 46 bd e9 45 e9 3b 56 87 02 3f
       0.338105 -0.048506428 0.0071189296 0.50987756
000010 57 4f 48 3f b2 6d 68 3f 2c 8a 2d 3e 51 b0 e6 bd
       0.78246063 0.9079238 0.1694724 -0.112640984

l3.weight f4 [8, 8]
000000 b5 f3 43 3e ca f3 21 3f 51 e0 0b 3f 36 9f a0 bf
       0.19135936 0.6326262 0.54639155 -1.2548587
000010 72 66 9d bf 5d 99 56 3e 32 ce 32 bf 52 ab 2d be
       -1.2296889 0.20956941 -0.6984588 -0.16959885
000020 7b ad 61 3f b2 09 be bf ca 7a 13 3f 27 20 a6 bf
       0.88155335 -1.4846709 0.57609236 -1.2978562
000030 7e 97 21 3f b2 13 68 be b3 c1 5a bf b1 a3 6f 3d
       0.63121784 -0.22663763 -0.8545181 0.058505718
000040 77 d9 e9 be 37 b8 25 3e 4a 09 7c bf de 97 2d 3f
       -0.45673725 0.16183554 -0.98451674 0.67809856
000050 e6 f1 0b 3f 0f 1b 65 bf e2 c7 d8 3e cb 28 81 be
       0.5466598 -0.89494413 0.42339998 -0.25226435
000060 8e 6e d0 3e b3 09 e5 3e a8 90 f9 3e 6c 23 95 bf
       0.40709347 0.44733962 0.48743176 -1.1651435
000070 e8 2b 41 3e d9 d7 98 bf 45 1a ea 3d e8 2d 4c 3e
       0.18864405 -1.1940871 0.11430792 0.19939387
000080 5f 30 da be fe 0b 00 3f 9c 91 a2 bf 9c bc 08 bf
       -0.4261503 0.500183 -1.2700686 -0.53412795
000090 d1 19 45 bf ce 49 3d 3f 6d 39 c0 3d 5b 1b 99 be
       -0.7699252 0.7394074 0.09385953 -0.29903683
0000a0 21 5e 8e bf 2a 9e ca bf dd a7 51 bf e4 61 6a 3f
       -1.1122476 -1.5829518 -0.81896764 0.9155562
0000b0 d5 06 dc bf 28 5b 06 3f 7a 7c 15 be 11 7f 70 be
       -1.7189585 0.52482843 -0.14598265 -0.23485972
0000c0 4c 60 0d 3f 17 6e 08 3f d5 15 1f bf 90 95 c7 3e
       0.5522506 0.53292984 -0.6214269 0.38981295
0000d0 26 b6 bd bf 14 30 e5 be 28 67 aa bd ff 9a a9 3e
       -1.4821212 -0.44763243 -0.08320457 0.33126065
0000e0 a8 07 d6 bf 73 55 a2 bf 3c 12 9f be ae c0 d5 bf
       -1.6721087 -1.2682327 -0.310686 -1.6699426
0000f0 82 94 27 3f ce f2 1f 3f e5 27 50 3e b7 8f 2a 3e
       0.6546098 0.62479866 0.20327719 0.16656385

l3.bias f4 [8]
000000 88 9d 02 bf 77 c4 a9 3e cc 56 d1 3d e1 3f d4 be
       -0.51021624 0.33157703 0.10221633 -0.41454986
000010 2d 39 94 3c 1b 4d 81 3e 08 dd b0 be 10 e2 e7 3c
       0.01809367 0.2525414 -0.34543633 0.028306037
